DQN(
  (layer1): Sequential(
    (0): Conv2d(1, 32, kernel_size=(8, 8), stride=(1, 1), padding=(1, 1))
    (1): ReLU()
    (2): MaxPool2d(kernel_size=2, stride=2, padding=0, dilation=1, ceil_mode=False)
    (3): Dropout(p=0.19999999999999996, inplace=False)
  )
  (layer2): Sequential(
    (0): Conv2d(32, 64, kernel_size=(5, 5), stride=(1, 1), padding=(1, 1))
    (1): ReLU()
    (2): MaxPool2d(kernel_size=2, stride=2, padding=0, dilation=1, ceil_mode=False)
    (3): Dropout(p=0.19999999999999996, inplace=False)
  )
  (layer3): Sequential(
    (0): Conv2d(64, 64, kernel_size=(3, 3), stride=(1, 1), padding=(1, 1))
    (1): ReLU()
    (2): MaxPool2d(kernel_size=2, stride=2, padding=1, dilation=1, ceil_mode=False)
    (3): Dropout(p=0.19999999999999996, inplace=False)
  )
  (fc1): Linear(in_features=7744, out_features=64, bias=True)
  (layer4): Sequential(
    (0): Linear(in_features=7744, out_features=64, bias=True)
    (1): ReLU()
    (2): Dropout(p=0.19999999999999996, inplace=False)
  )
  (fc2): Linear(in_features=64, out_features=5, bias=True)
)
DQN(
  (layer1): Sequential(
    (0): Conv2d(1, 32, kernel_size=(8, 8), stride=(1, 1), padding=(1, 1))
    (1): ReLU()
    (2): MaxPool2d(kernel_size=2, stride=2, padding=0, dilation=1, ceil_mode=False)
    (3): Dropout(p=0.19999999999999996, inplace=False)
  )
  (layer2): Sequential(
    (0): Conv2d(32, 64, kernel_size=(5, 5), stride=(1, 1), padding=(1, 1))
    (1): ReLU()
    (2): MaxPool2d(kernel_size=2, stride=2, padding=0, dilation=1, ceil_mode=False)
    (3): Dropout(p=0.19999999999999996, inplace=False)
  )
  (layer3): Sequential(
    (0): Conv2d(64, 64, kernel_size=(3, 3), stride=(1, 1), padding=(1, 1))
    (1): ReLU()
    (2): MaxPool2d(kernel_size=2, stride=2, padding=1, dilation=1, ceil_mode=False)
    (3): Dropout(p=0.19999999999999996, inplace=False)
  )
  (fc1): Linear(in_features=7744, out_features=64, bias=True)
  (layer4): Sequential(
    (0): Linear(in_features=7744, out_features=64, bias=True)
    (1): ReLU()
    (2): Dropout(p=0.19999999999999996, inplace=False)
  )
  (fc2): Linear(in_features=64, out_features=5, bias=True)
)
EPISODE 0
Step Count = 500
Step Count = 1000
Episode done omg
Total training rewards: -55.64516129032336 after n steps = 0 with final reward = -0.10000000000000142
Copying main network weights to the target network weights
EPISODE 1
Step Count = 500
Step Count = 1000
Episode done omg
Total training rewards: -60.65573770491897 after n steps = 1 with final reward = -0.10000000000000142
…
